…
          "base_uri": "https://localhost:8080/"
        },
        "outputId": "37360dba-a2b1-43cf-9c62-03c48c0f5318"
      },
      "execution_count": 16,
      "outputs": [
        {
          "output_type": "stream",
          "name": "stdout",
          "text": [
            "Model: \"sequential_1\"\n",
            "_________________________________________________________________\n",
            " Layer (type)                Output Shape              Param #   \n",
            "=================================================================\n",
            " conv2d_4 (Conv2D)           (None, 222, 222, 64)      1792      \n",
            "                                                                 \n",
            " conv2d_5 (Conv2D)           (None, 220, 220, 64)      36928     \n",
            "                                                                 \n",
            " max_pooling2d_2 (MaxPooling  (None, 110, 110, 64)     0         \n",
            " 2D)                                                             \n",
            "                                                                 \n",
            " dropout_3 (Dropout)         (None, 110, 110, 64)      0         \n",
            "                                                                 \n",
            " conv2d_6 (Conv2D)           (None, 108, 108, 128)     73856     \n",
            "                                                                 \n",
            " conv2d_7 (Conv2D)           (None, 106, 106, 128)     147584    \n",
            "                                                                 \n",
            " max_pooling2d_3 (MaxPooling  (None, 53, 53, 128)      0         \n",
            " 2D)                                                             \n",
            "                                                                 \n",
            " dropout_4 (Dropout)         (None, 53, 53, 128)       0         \n",
            "                                                                 \n",
            " flatten_1 (Flatten)         (None, 359552)            0         \n",
            "                                                                 \n",
            " dense_2 (Dense)             (None, 128)               46022784  \n",
            "                                                                 \n",
            " dropout_5 (Dropout)         (None, 128)               0         \n",
            "                                                                 \n",
            " dense_3 (Dense)             (None, 6)                 774       \n",
            "                                                                 \n",
            "=================================================================\n",
            "Total params: 46,283,718\n",
            "Trainable params: 46,283,718\n",
            "Non-trainable params: 0\n",
            "_________________________________________________________________\n"
          ]
…
